model.pt (torch, 242451 bytes, 20 tensors)

weight f4 [4, 2, 3, 1]
00000000: 9949 ad3e ddd3 083e f486 553e d0d7 dfbe
00000010: aebc 8c3e dfdb d1be e015 613b 0825 d03d
00000020: 6fb8 9dbd 9971 51be 5146 e5bd fac2 0c3e
00000030: b146 bf3e f0d7 cc3e a4b7 a7be 2d95 353e
00000040: b48d a2bd b31d d13e 8b73 733e f8fc 55bb
00000050: de5c f6bd 9b72 2b3e d390 b1bd 7678 01be
0.33845213 0.1336207 0.20852262 -0.4371934 0.274877 -0.4098806 0.0034345314 0.10163313
-0.077011935 -0.2045349 -0.111950524 0.13746253 0.3735862 0.40008497 -0.32757294 0.17732687
-0.07937184 0.4084297 0.23774545 -0.0032652002 -0.12029432 0.16742937 -0.08670201 -0.12643608

bias f4 [4]
00000000: 0cfd c53e ac14 49be 42d4 39bd a521 0d3e
0.38669622 -0.19636792 -0.04536844 0.13782366

weight f4 [8, 4, 3, 1]
00000000: 1192 6dbe 22bd 573e 65c2 92be 38c0 813e
00000010: 55f4 263e 7961 5f3e 83b7 373e ecc4 20be
00000020: ec4d 7f3e 98a4 593e 21fe 1d3e 3fbb dc39
00000030: e572 4cbe dddc 7b3c 7d43 373e ca9c 87bd
00000040: b758 353e 6b1d a8bd c719 023b 495b c43c
00000050: e93f 87bc 3754 03be fe31 57be 027f 8c3e
00000060: 8d66 c4bd 6a43 063d af19 d03d f350 713e
00000070: 2971 4abe 3c0d 3f3e e254 8bbe 69c5 87be
00000080: ef17 45bd ba21 db3d 4353 bfbc 1d53 b0bc
00000090: 7fbe 913e 70b1 8e3e a345 86be 963b 713e
000000a0: abb8 f13c 7797 dbbd 31e8 dabd 541b c53d
000000b0: 73b2 9cbd 8a54 67bd b10c 073e 73e2 a03d
000000c0: 3c9e c6bd 1a65 993e 5aed 0abd 3169 c8bd
000000d0: ae4f 4dbe 6f4f 21bd d9cf e0bd 8841 ea3c
000000e0: a074 843e 55d9 f23d bc13 403d cdb9 873e
000000f0: c3c6 cb3d 56f5 6c3e 1b76 793e a262 b03d
00000100: bc5b 6e3e ef53 873d b763 1bbe dd73 853d
00000110: f423 1fbe 6905 663d ebbb fe3d c74d e5bd
00000120: 7825 34be 2892 6dbb 6218 903e 7c82 833d
00000130: 7db8 3b3e 9cde 863e b153 663e 4d26 39be
00000140: ea25 dfbc 5564 8d3e c4c5 083e 34f7 ea3d
00000150: b2e7 823e b119 9e3d 815d 58be 96f7 1e3e
00000160: 05f0 c13d 51bc 0abd c23d 473e a286 873e
00000170: f24b 093e 2c06 733d b574 603d c066 373d
-0.23200251 0.21068242 -0.28663936 0.25341964 0.16304143 0.21814527 0.17941098 -0.1570012
0.24932069 0.21254194 0.15428974 0.0004210118 -0.19965704 0.015372482 0.17896838 -0.06621702
0.17709623 -0.08208736 0.001985179 0.02396931 -0.016509967 -0.12825094 -0.21015164 0.2744065
-0.095898725 0.032779135 0.10161149 0.23566036 -0.1976973 0.18657392 -0.27213198 -0.265178
-0.048118528 0.10699792 -0.023355132 -0.021524007 0.2846565 0.2786975 -0.26225004 0.23557886
0.029507002 -0.10722249 -0.10688818 0.09624353 -0.07651224 -0.056477107 0.13188435 0.07855692
-0.096981496 0.29959947 -0.033917762 -0.09785689 -0.20049927 -0.039382394 -0.10977144 0.0285957
0.25870228 0.11857859 0.04689382 0.26508942 0.0995002 0.23140463 0.2436146 0.08612563
0.23277181 0.06607806 -0.15174757 0.0651624 -0.15541059 0.056157503 0.12438186 -0.111964755
-0.17592418 -0.0036250446 0.28143603 0.06421372 0.18332095 0.26341712 0.22492863 -0.18081017
-0.027239759 0.2761561 0.13356692 0.114729315 0.25567394 0.07719744 -0.21129419 0.15524134
0.09469608 -0.033871 0.19457152 0.26469904 0.13407877 0.059332058 0.0547988 0.044775724

bias f4 [8]
00000000: 60c2 40be 2eda c4bd eca9 8f3e 2611 813e
00000010: d1f0 9dbc b855 d13d 2e9d 4ebd cd46 95bd
-0.18824148 -0.09611927 0.28059328 0.25208396 -0.01927987 0.10221428 -0.050442867 -0.07288895

weight f4 [16, 8, 3, 1]
00000000: 7d35 f6bd 3fde 393d 38a4 e2bd e64d 34bd
00000010: a60c 2bbe 07a1 e8bb d5d5 423e 785f 583d
00000020: 56d2 0a3e 1f37 b0bc 975b 6f3c 05de 66bd
00000030: 29f9 94bd 7539 9d3d 321c c4bd a116 ef3d
00000040: bae0 72bc a187 ca3d 3ed4 01be 7e25 403e
00000050: af5b 013e c7bc b0bd af94 13be 0335 323e
00000060: eea3 ecbd d170 f43d 54c9 2ebe e860 80bd
00000070: b9f3 34be 59a9 f8bd 22b2 a3bc bce5 b83d
00000080: 48c6 183e df86 0e3e edd4 35ba e3ff 3c3e
00000090: 67bc d9bd a22d 003e 3bc3 433e 2a33 e43d
000000a0: 1374 1e3e c1e8 03be 8836 99bd 38fc 86bd
000000b0: 8c2b e53d 2eaa ec3d 0222 2cbe 8d84 babd
000000c0: a228 353d 619d febd 1e8d 6f3d 324f 07be
000000d0: c607 32bd f8ab 5f3e b36f 5dbd 3bd5 f9bb
000000e0: a0d8 313a de9a 0a3c d0ab 6fbd bab4 0e3e
000000f0: 9814 46be f22f 903c bb40 093e ef02 c53d
00000100: c2cc db3d 7282 d9bd 3657 b3bd 3601 8dbd
00000110: df3b 313e f164 09be 5313 b9bc f713 503e
00000120: d657 b43d 87fc 38be cb93 98bd 8cf7 e4bd
00000130: 0ae3 303d bd8f 13be d8ab d1bc f887 90bd
00000140: 2aac b5bb 918c 0a3e 5b28 5d3e 4dff 89bd
00000150: ad6a 3a3e fbd9 99bd 979a febd 0dff d8bb
00000160: 0288 043e 1eae 09be 8402 41be 3a91 f5bd
00000170: 16a1 3cbd f9bd 36be c0ec 923d 1f32 2d3e
00000180: 6e96 e53d 0545 103e 3f25 d7bd a90f 2fbe
00000190: bc24 1cbe dc97 e1ba 6f5d 5dbd fd4b 40be
000001a0: 396b 0dbe a646 ba3c 07ef afbd c63b bcbc
000001b0: 4e11 adbc 9011 02be a2e6 7ebd a56e fd3d
000001c0: 956d 50bc 7f19 2dbe 6030 b8bd 2d76 f13c
000001d0: 416e 383e f256 91bd fd12 cb3d af14 5b3d
000001e0: e006 4ebe ee8b 913d 0345 a13c e330 043c
000001f0: 54a4 2f3d e0e6 6bbd c6b1 4a3e d5e8 8c3b
00000200: f5b8 aebd 2ab4 0fbe c6e4 19be 6d70 5e3e
00000210: d908 0b3d ebe6 ab3b aa2d 13bd 2969 163e
00000220: 8c2c 29be 6a17 3ebd 58c4 d5bd dab8 84bd
00000230: bb5e 3cbd 3604 f6bd b806 9fbd 9192 a83d
00000240: 31d5 bf3c 3987 9a3c 0887 713d 00a0 243c
00000250: e4ab 0c3e b565 35bd 3952 95bd acc3 0ebe
00000260: f96c 00be 2db5 303d 6ed4 24be dd2e db3d
00000270: be78 193e 0e70 0ebe 928d 993d f540 853d
00000280: 9722 f43d 62fb 1e3c eeed 2f3e 6a2f dc3d
00000290: 5d09 cf3d 89f0 10bd 4fe8 05be f1a9 e6bd
000002a0: c675 393a 5eed 3dbe a217 08be 5f8a 1dbe
000002b0: 8d7c f33d c26e 943c 0bae 18bd 012b 52bb
000002c0: 71c8 df3c b3d0 143e faf7 dcbd 46e0 f1bd
000002d0: a30c 473e 334a f53d 8029 013c a5c8 c9bc
000002e0: 6d34 5d3e 90e3 853d f9c7 603e 3c63 013e
000002f0: 3f1b 4a3e 1ea7 e1b7 07ef 113e a9c2 74bc
00000300: d80c c3bd 0a65 efbd 0337 f73d 2c1f fd3d
00000310: ae2a 5a3d 2ccd 383e 8374 44be eab5 3c3e
00000320: 8dcf a8bd 58b5 9d3d f92a 563e 5731 b3bc
00000330: 429a b6bd 409d 533d 6d53 e4bd 211a 2ebd
00000340: e4d9 02bb 4ac5 a5bd 25c8 023e e766 4d3e
00000350: 461f a6bd 5bac c0bd 482c 20be afb9 39be
00000360: 5124 83bb c221 bfbd 37ef 003e e680 263e
00000370: 2e46 173d f883 233e 1102 88bd 1721 2a3e
00000380: 8ee2 8d3d f0d8 383e 88d5 1fbd 80cc 133e
00000390: 66de 2fbe a944 fcbd 6cf5 f23d ceeb 3e3d
000003a0: 985d d83d 966f d43d c016 c6bb dcfe 3c3e
000003b0: c198 aa3a 4ae4 f73d 8f98 883d f7b7 c23d
000003c0: 90b5 163e 7bd6 a3bd 52ac cabd 3de7 a5bd
000003d0: 248a 573c 42bb a03c 6f1e 28bc ee46 90bd
000003e0: aea4 0c3e 0cbe 2fbe 0898 90bd b6d7 523c
000003f0: 7149 0abe 1d68 10be 2f0d 653e 860d 383b
-0.12021921 0.045377966 -0.110664785 -0.044019602 -0.16704044 -0.007099274 0.19026883 0.05282542
0.135568 -0.021510659 0.014609239 -0.056364078 -0.07274086 0.07676975 -0.0957569 0.11674238
-0.014824087 0.098891504 -0.1267862 0.18764302 0.12632631 -0.086297564 -0.14412187 0.17403035
-0.115547046 0.119355805 -0.17068988 -0.062684834 -0.17671098 -0.121416755 -0.019982401 0.09028193
0.14919388 0.13918637 -0.00069363305 0.18456988 -0.10631638 0.12517408 0.19117443 0.11142571
0.15473966 -0.12881757 -0.07481104 -0.06591076 0.111899465 0.11555897 -0.16809848 -0.09107313
0.044228204 -0.124323614 0.05848419 -0.13213804 -0.043464445 0.21842945 -0.054061603 -0.007624296
0.0006784294 0.008459775 -0.058513463 0.13936129 -0.19343793 0.017600987 0.13403599 0.096197
0.10732414 -0.106205836 -0.087568685 -0.068849966 0.17307995 -0.13417412 -0.022592222 0.20320116
0.08805816 -0.18065082 -0.07450064 -0.11180028 0.04318527 -0.144103 -0.025594637 -0.07057184
-0.005544205 0.13530184 0.21597426 -0.06738148 0.18204756 -0.075122796 -0.124318294 -0.0066222013
0.12942508 -0.13445327 -0.18848616 -0.119905904 -0.04605206 -0.17845906 0.07174063 0.16913651
0.11210333 0.14088829 -0.10505151 -0.17095818 -0.15248388 -0.0017211395 -0.054044183 -0.18778987
-0.13810433 0.022738766 -0.08590513 -0.022977721 -0.021126416 -0.12702012 -0.062231667 0.123746194
-0.012721439 -0.16904257 -0.08993602 0.029475296 0.18010809 -0.070966616 0.09915731 0.053486522
-0.2011981 0.071067676 0.019686228 0.008068296 0.042881325 -0.057593226 0.19794378 0.0043002167
-0.085313715 -0.14033571 -0.15028676 0.21722575 0.033943985 0.0052460334 -0.03593222 0.14688553
-0.165209 -0.04640905 -0.1043784 -0.0648057 -0.04598878 -0.12012522 -0.077649534 0.0823108
0.023417087 0.018863307 0.058966666 0.010047913 0.13737446 -0.04428645 -0.07291073 -0.1394183
-0.1254157 0.043141533 -0.1609666 0.10702298 0.14987466 -0.13909933 0.074977055 0.0650653
0.1192066 0.009703489 0.17180607 0.10751231 0.10109208 -0.035385642 -0.130769 -0.112628825
0.00070747396 -0.1854758 -0.13290265 -0.15384816 0.118889906 0.01811922 -0.037275355 -0.003206909
0.027317258 0.14532737 -0.10789485 -0.11810355 0.19438414 0.11977043 0.0078834295 -0.024631808
0.2160203 0.06537545 0.21951284 0.12635511 0.19736956 -2.689991e-05 0.14251338 -0.014938989
-0.09523934 -0.116891935 0.120710395 0.12359461 0.05326336 0.18047017 -0.1918507 0.1842877
-0.08242712 0.07700604 0.2091483 -0.021874113 -0.08916141 0.051663637 -0.11148725 -0.042505387
-0.0019966299 -0.080942705 0.12771662 0.20058785 -0.08111434 -0.09407874 -0.15641892 -0.18137239
-0.004002132 -0.09332611 0.12591253 0.16260108 0.036932163 0.15968311 -0.06641019 0.16614185
0.069279775 0.18051505 -0.039022 0.1443348 -0.17174682 -0.123177834 0.11863217 0.0466116
0.105647266 0.10372846 -0.0060451925 0.18456596 0.0013015495 0.121040896 0.06669723 0.09507745
0.14717698 -0.07999893 -0.09896149 -0.08100746 0.013155494 0.019620541 -0.010261162 -0.07044779
0.13734695 -0.17162341 -0.07060248 0.012868812 -0.13504578 -0.14102216 0.2236831 0.0028084232

bias f4 [16]
00000000: 8f14 1a3e 07d6 b8bd 5716 80bd 799d 20be
00000010: 5dfd bc3d 366c 4a3e db79 b13c 78a2 6ebc
00000020: 479a 733c 8eaa d5bd 8813 29be 1498 acbd
00000030: 72d2 48bd 48ac 123e f182 423e 5053 7dbd
0.15046905 -0.090251975 -0.06254261 -0.15685071 0.09228013 0.19767842 0.02166455 -0.014565103
0.014868326 -0.10432921 -0.16511357 -0.08427444 -0.04902882 0.14323533 0.18995263 -0.06184703

weight f4 [32, 16, 3, 1]
00000000: 6133 40bd 3b58 603d db83 f7bb 54d9 1dbd
00000010: 8d7c 083e 54c4 42bc 7ccf 4d3d 2142 07be
00000020: 2418 c63d cd21 4abb 54f2 85bd 5d98 f2bd
00000030: 5b97 6abd 06c2 15be 18b4 273d ba67 ec3c
00000040: d6c8 d53d 4081 f63b 5e24 b1bd 59d0 343b
00000050: 13c0 23bd e012 d6bc f899 2abd 717c 04bd
00000060: b9ee e53d 156f 143e 8743 a53d fe04 513d
00000070: 38db 41bc 23a3 1a3e 40a6 4d3d d10f 1cbe
00000080: 4999 ca3d 8545 a83d d6ca 87bd 87d7 c6bd
00000090: a24f 89bc 7641 bc3d f16f a03b 89cf fb3c
000000a0: 9492 36bd 8a3b 853d 0f22 1b3d 8546 d13d
000000b0: 0fa1 0f3e ae6e 2bbd 11d8 eebc 68c9 99bc
000000c0: bf62 dabd e77e 0bbe 48ed 8bbd bb04 babd
000000d0: 0698 283d 1895 ee3d cf80 d2bd ff6f d9bc
000000e0: baef ca3c d62e efbd 6628 8d3d 8eb3 a3bc
000000f0: 3b01 39bd f680 8dbc 4a85 a13d 93a1 ea3b
00000100: 9531 353d 5536 d93b b033 b3bd 9291 e83d
00000110: 06e1 aabd ba44 84bd 352b c4bd 7d89 a63d
00000120: d704 fdbb 531b f4bb 817f f13d 2f66 3a3d
00000130: b6b6 93bd d8ce e6bd d5fe e73c 9756 f7bd
00000140: e47e 0dbe 7ed3 08be 6fb3 e9bd 6220 993d
00000150: d266 9c3d c51a dc3d 85e0 fe3b bdb6 033e
00000160: c771 c63d 24dc d0bd bae4 bebc 92a4 e4bd
00000170: 872f 0fbe 9c21 ccbd 61a9 c5bd 4d01 d7bd
00000180: 1f4d c03b 7a6e a8bc 0086 77bc 1b47 843d
00000190: c838 06be 36b2 94bd 349c e1bc 4a24 9c3c
000001a0: 7a20 c7bd 057f 94bc 3f37 02bb e3a9 98bd
000001b0: ab5a d23d 1fff f7bd c279 093e 3605 9dbc
000001c0: b523 483e f5b1 30bd 36be 0fbe e373 3e3d
000001d0: f2c1 fb3c 2c51 063e 81cb 28bd 144b b0bd
000001e0: 0486 c43d aaf4 aabd f55f b33c 1b4b abbc
000001f0: ae0e 12be ca88 893d 304f 84bd fcfa d03b
00000200: 3699 b63d 7979 dc3d 0957 67bd 3eb2 e2bc
00000210: ac63 04be 0060 213e b6f0 e1bd 0589 003e
00000220: 8746 803d 6367 0b3e 091f acbc 9672 cb3d
00000230: f7ca 1e3b 9a07 0cbd d9d9 5cbd 7f1a b6bc
00000240: 75ea cf3d 8c1e 1b3e e892 9fbd 9c5b 0ebc
00000250: f6bd 0cbe 9c0a 2fbd e4d6 14bd 944c bdbd
00000260: 77b7 aabd defa 6b3d 92a6 dcbd 7ae7 c33b
00000270: 281b 44bd b6f0 783d 0a1d 103e 81b6 3a3b
00000280: e871 103e 6ba4 91bd 278c 9a3a 9351 aebc
00000290: 3aed 473d 409c 173e 5478 213e 3a3d edbc
000002a0: 6b1a 02be 237d 7bbd 3a40 d5bd 4437 cebd
000002b0: c514 133e 7b73 47bd fded f6bd 0947 1bbe
000002c0: c94d 0cbe e7c1 8b3d 4e75 033e 71be cf3d
000002d0: 4c7f 2c3d d31d 05bd d4ad 183d fa66 0dbe
000002e0: 5b73 26bc 03ff 433d 0794 c8bd a79f 133c
000002f0: 1dd4 7c3d ad23 c5bd 51ae 05be 1ad9 263d
00000300: cc62 3abb bc5d a93d bab9 d8bc 7ef2 8f3a
00000310: 2a8f c03d e5a9 79bd 1d3a 6abd 8995 18bd
00000320: f986 a8bd 1ca7 7b3d bc88 b0bd 585e 57bd
00000330: 238d a3bc 4029 8ebd eab8 61bc 53b8 6a3d
00000340: ce70 47bd 7cc1 f23d 02c1 b13d 19f7 143e
00000350: 6939 afbc 72f2 f1bd bc86 203e 974f c5bc
00000360: e26c 0a3d 3c2a f4bd f2a8 0f3e eb4a a93d
00000370: 91d1 653d e7cb c33d a8d4 c53d ff3f 89bd
00000380: bfba e6bd 218e 4e3d 900a 93bd 4b17 9fbd
00000390: 652d 2e3e b506 53bc e0ea e2bd 3f72 e53d
000003a0: 9427 ed3c 5cb7 69bd 2eea e83d 7b91 2cbd
000003b0: f69b b5bd 766b 04be 5dc0 0f3e 147b adbd
000003c0: 78e9 81bd b830 6b3d 2503 663c 238a 073d
000003d0: d71c 6dbd c1f0 f8bd a655 6dbd 6219 99bd
000003e0: 64fb 84bd 477f 6a3d f8b3 1a3b 66fb 583d
000003f0: 8b00 c5ba 094f ffbd 0b57 dbbd c22e 873d
-0.046924 0.054771643 -0.00755356 -0.03853734 0.13328762 -0.011887629 0.0502467 -0.1320882
0.09672573 -0.00308429 -0.06540361 -0.11845467 -0.05727325 -0.14624795 0.040943235 0.028858054
0.10438697 0.007522732 -0.086495146 0.0027590005 -0.039978098 -0.026132047 -0.041650742 -0.03234524
0.11227173 0.144955 0.080695204 0.05103015 -0.011832051 0.15101294 0.050207376 -0.15240408
0.09892518 0.08216385 -0.06630485 -0.09709077 -0.016761605 0.09192173 0.004896157 0.030738609
-0.04457338 0.06505497 0.037874278 0.10218529 0.14026283 -0.0418536 -0.029155763 -0.018772796
-0.106633656 -0.13622628 -0.06832367 -0.090829335 0.041160606 0.11649531 -0.102784745 -0.026542662
0.024772514 -0.11678855 0.06892471 -0.01998308 -0.04516719 -0.017273407 0.07886751 0.0071603744
0.04423674 0.0066287913 -0.08750093 0.1135589 -0.08343701 -0.06458421 -0.095785536 0.081316926
-0.007721524 -0.0074495464 0.117918976 0.045507606 -0.07212584 -0.11269921 0.028319756 -0.120770626
-0.13817936 -0.13361928 -0.11411177 0.0747688 0.07636799 0.107472934 0.0077782297 0.12862678
0.0968967 -0.101982385 -0.023302425 -0.11164202 -0.13982974 -0.09967348 -0.09651447 -0.10498295
0.0058685686 -0.020560492 -0.015107632 0.06458875 -0.13107598 -0.072605535 -0.027540304 0.019060273
-0.09722991 -0.018126974 -0.0019869355 -0.07454278 0.102712 -0.12109207 0.13425353 -0.019167524
0.19544871 -0.043138463 -0.14037403 0.046497237 0.030732129 0.13116902 -0.0412097 -0.0860807
0.09595874 -0.08347447 0.021896342 -0.020909837 -0.14263412 0.067155436 -0.06460416 0.006377576
0.089159414 0.107653566 -0.056479488 -0.027672883 -0.12928647 0.15759277 -0.1103224 0.12552269
0.06263452 0.13613658 -0.021010892 0.09933965 0.0024229863 -0.034186937 -0.053918693 -0.022229431
0.10152141 0.15148371 -0.07791692 -0.008688834 -0.1374434 -0.042734727 -0.03633775 -0.09243122
-0.083357744 0.057612292 -0.10773958 0.005978522 -0.04787746 0.060776435 0.14073578 0.0028490128
0.14105952 -0.07111438 0.0011791036 -0.021279132 0.04881022 0.14805698 0.15768558 -0.02895986
-0.1270539 -0.061398637 -0.10412641 -0.10069135 0.14363392 -0.048694115 -0.120571114 -0.15163817
-0.13701548 0.06824093 0.12837717 0.10143746 0.042113587 -0.032499146 0.03727515 -0.13808814
-0.010159339 0.04785062 -0.09793859 0.009010232 0.061725724 -0.09625945 -0.13054778 0.040734388
-0.0028440235 0.082698315 -0.026455749 0.0010982302 0.094023064 -0.06095304 -0.057184327 -0.037251983
-0.08228869 0.061438665 -0.0861983 -0.052580208 -0.01996476 -0.069414616 -0.013776997 0.05730469
-0.048691563 0.118533105 0.086793914 0.14547385 -0.02138968 -0.11813821 0.15676397 -0.024085803
0.033795245 -0.11922118 0.14029291 0.082662426 0.05610806 0.09560376 0.096597016 -0.067016594
-0.11266088 0.050428513 -0.07179749 -0.07768115 0.17009504 -0.012880017 -0.11079955 0.11203431
0.028949536 -0.05705963 0.11372791 -0.04213093 -0.08867638 -0.12931618 0.14038225 -0.08470741
-0.06343359 0.05741951 0.014038836 0.03309072 -0.057888832 -0.12155295 -0.05794301 -0.074755445
-0.064932615 0.057250287 0.0023605805 0.052974127 -0.0015030069 -0.12466247 -0.107099615 0.06600715

bias f4 [32]
00000000: c674 9c3d 7d2f b1bc 2245 00bd 1d8e fdbc
00000010: 67d9 68bd 2ac8 4abd 93f1 89bc 7278 3cbd
00000020: c46a 133e 4645 d4bd 2464 c7bd 3637 72bd
00000030: 80b7 c93d 82d0 113e cb3d 03bd bdda 123e
00000040: 867d 783c 211a d73d 5ad4 8c3d d9c5 b13d
00000050: 4e0c e73d 780b 05be df63 50bd 8e4e 99bd
00000060: 4cdb 0dbd 178d 61bd 9ef5 22bc 33b9 00bd
00000070: b959 babd dc3f 203b 26e7 793d fabc 0b3e
0.0763946 -0.02162909 -0.03131593 -0.030951554 -0.056847956 -0.049507298 -0.016838824 -0.046013303
0.14396197 -0.10364775 -0.09735897 -0.059134685 0.09849453 0.14239696 -0.032041352 0.14341255
0.015166646 0.105030306 0.0687644 0.086803146 0.11281644 -0.12992656 -0.050876494 -0.07485686
-0.034632966 -0.055066194 -0.009946255 -0.03142662 -0.090991445 0.0024452126 0.061011456 0.13646308

weight f4 [64, 32, 3, 1]
00000000: 142c 733d 0f88 e8bc aa69 8c3d 6f61 133d
00000010: 4170 853d 8b9b 4a3d f7de 3c3d f4ca 8e3d
00000020: f5f8 90bd 5963 37bd bb1e 42bc 756c 3b3d
00000030: c609 c4bd 052d ab3d 14f6 97bd 02ef 973d
00000040: 849c eebd 7fd2 733d 0c2c bbbd e055 973d
00000050: 2ab7 a3bd e9ec 02bd 088f 803d 723e db3d
00000060: 46ec a23d 169f 163d 948f f9bc 508d e5ba
00000070: 1185 b6bc 320a 773d 2f44 693d 6e77 b2bd
00000080: 8b4e 7a3c 7746 763d b4a9 923d 4cec 9b3d
00000090: 5c6d 35bd 98d7 503d 0d7d 2e3d 3cf2 b83d
000000a0: e9f0 1f3d c23e 7d3d 679d 713c 0b9e 3a3d
000000b0: 98a5 cf3d 3d5c 8f3d d7ba 79bd 0afa fc3d
000000c0: fe31 7a3d 6ce2 2dbb bdcc 533d 7e94 893d
000000d0: 270c a13d 61bd c0ba ff76 6cbd 39b9 26bd
000000e0: ca45 bc3c 700c 4bbd 15e9 62bd ad89 b0bc
000000f0: cc76 be3c a1b7 d93c 06a8 843c 874e 5abd
00000100: e11d 38bd cee7 263d 9d3c 32bb 9be2 943d
00000110: 8bf5 86bc d1f8 c63d 9922 aa3d fa78 693d
00000120: 5e54 2c3d 1351 d13b e82a 423d fd4c 2abd
00000130: a9be 14bd 7db8 043d 26ce db3b 3d7b 69bd
00000140: 0d45 94bc ce59 b4bc ff40 8cbd 7c6a c4bc
00000150: 80b3 c7bd d517 c3bd 8a78 9e3c 1101 9f3d
00000160: 50ee cebd 778e 5cba 296f d7bc e801 b4bd
00000170: cf94 c93d bf02 a0bd 8aaf 78bd 0eff dabc
00000180: 728f bc3c 590b 4dbd f45d 94bd 3a15 19bd
00000190: 58c7 95bd 07cf b6bd b2d1 85bd 608d 9d3d
000001a0: 9571 b83d 4439 563c b273 ed3b 5b2c 253d
000001b0: f414 9fbc 5fa6 7f3d e8dd 2e3c 35cd c63d
000001c0: 62ec f2bc 8207 8dbd 1112 c23d 2320 c93d
000001d0: e27d 283d 4e75 76bd 360c 1abd 117c 983c
000001e0: 709d 943d 7ed5 2e3d b214 9bbc defa 11bd
000001f0: f02b 653d 89f9 3e3c 77a6 c4bd 3121 b03d
00000200: 7f1d bf3d b358 8dbd fcc7 f8bc de33 dbbd
00000210: 1812 36bd 4f3b f8bc cac6 58bd bb0d acbd
00000220: 06f6 b13d 722e 9abc 98e4 03bd 000c bb3d
00000230: dd5a 61bd c7b1 98bd 3a09 b93d a3d3 c93c
00000240: 78b3 1bbd 2f7e ab3d d866 b4bd c5a3 99bd
00000250: d195 5cbd 7929 44bd f86a 943c 3f82 8bbd
00000260: 877d a8bd 643a f33c 382d 47bd 75c2 b93d
00000270: d2c6 11bd 2af9 dd3d e3c7 963d 8b73 e13c
00000280: e3ab 4abd e47a 99bc 87be b3bc 1ac2 92bd
00000290: be25 983d 3dcd 96bd 6329 4abc 2fb2 0ebd
000002a0: fe9b f7bc b9e0 52bd 56b5 00bd 69da f9bb
000002b0: 897c b43b 5529 51bd e7af d7bd 9da2 78bd
000002c0: a6db 973d 1136 b03d ada2 ae3c e6f4 e3bd
000002d0: 6a81 8fbd 8889 193d 5639 ef3c 7e23 67bd
000002e0: 76f6 b1bd ad97 283d 6c23 cdbc b4f5 df3d
000002f0: 149c 8dbd 1ddc 133d 800d 8f3d 447d b93d
00000300: 93da 253d f3a0 983d 0c0c be3d 1b77 a23c
00000310: 17ef 83bc c659 48bd e4fb 27bd 73aa b43d
00000320: d51e a7bd 290e 823d d73e d73d 6133 08bc
00000330: 6ea7 b6bd a63b 9d3c 2aec 4dbd 9976 3ebd
00000340: c6f5 70bd a1b5 dcbd ddb1 523d f072 523c
00000350: f67d 2a3c fb5e 523d eaa8 263d 9676 f03d
00000360: cb59 81bd e9be 76bb cef8 6e3d 6ea4 3ebd
00000370: 1295 adbc e2e0 1ebd 57c4 43bd c152 6b3d
00000380: 1f94 ab3d 9d0a d8bd baee 783d 7102 193d
00000390: 2f5a 88bd dabc 93bd eed6 c63d e1c9 d7ba
000003a0: ed45 893d 597f d23c 6c6f 143d cf6b 0dbd
000003b0: bc9e 9b3d e4c8 da3d 4741 653b fc3e 243d
000003c0: b63d 063c facf b23b f533 a4bd fbbc 7d3d
000003d0: 9bd1 273b 247c 13bd 9731 cb3d 0596 91bc
000003e0: 196d cf3c 230b fd3c 81e5 0d3b 23e6 763d
000003f0: 918a fcbc 70a3 babd 8b31 c5bd 8640 88bc
0.059368208 -0.02838519 0.06856091 0.03598159 0.06515551 0.049464744 0.046111073 0.06972304
-0.07078735 -0.04477248 -0.011848147 0.04575773 -0.09572177 0.08358196 -0.074199826 0.07418634
-0.11650947 0.059526917 -0.09139261 0.07389426 -0.0799392 -0.031964216 0.06277281 0.1070527
0.07955222 0.03677281 -0.030463971 -0.0017513428 -0.022280248 0.060312457 0.05694979 -0.08714186
0.015277515 0.060125794 0.071612746 0.076134294 -0.044293746 0.050986856 0.042599726 0.090305775
0.03904811 0.06182743 0.014747 0.045560878 0.101390064 0.07000015 -0.0609692 0.12352379
0.061082833 -0.0026532663 0.051708926 0.06717776 0.07863646 -0.0014704877 -0.05773067 -0.040703986
0.022982497 -0.04957241 -0.055398066 -0.021550024 0.023250006 0.026576819 0.016193401 -0.053297546
-0.04495037 0.04074841 -0.0027196773 0.07269784 -0.016474506 0.09715427 0.0830738 0.057000138
0.042072646 0.0063878386 0.0474042 -0.041577328 -0.03631464 0.032402504 0.0067079244 -0.057002295
-0.018099332 -0.022015478 -0.068483345 -0.023976557 -0.09751034 -0.0952603 0.019344587 0.07763875
-0.10104048 -0.0008413563 -0.026298122 -0.08789426 0.09842836 -0.07813024 -0.060714282 -0.026732948
0.023017619 -0.05005965 -0.07244483 -0.03737376 -0.073134124 -0.08926206 -0.06534137 0.07692981
0.09006039 0.013075177 0.007246458 0.040325504 -0.01941917 0.062414523 0.010673024 0.09707109
-0.029653732 -0.068861976 0.09476102 0.09820583 0.041135676 -0.060170464 -0.0376093 0.018613847
0.07256591 0.04268407 -0.018930767 -0.035639636 0.055950105 0.0116561735 -0.09602063 0.08600081
0.09331798 -0.06901684 -0.030368797 -0.10703252 -0.04445085 -0.030301718 -0.052923955 -0.084010564
0.08689503 -0.018820975 -0.032200426 0.09133148 -0.055018295 -0.07455783 0.09034963 0.024637049
-0.03801295 0.08373677 -0.088086784 -0.0750194 -0.053853814 -0.047891114 0.018117413 -0.06811952
-0.082270674 0.029690929 -0.04862711 0.09070293 -0.03559 0.1083854 0.07362344 0.027520915
-0.04948033 -0.018735357 -0.021941436 -0.07165928 0.07429074 -0.07363365 -0.012338969 -0.034837898
-0.03022575 -0.051483843 -0.031422935 -0.0076249135 0.00550801 -0.051064808 -0.105315976 -0.060701955
0.074149415 0.08604062 0.021317804 -0.11130695 -0.07007106 0.037484676 0.029202145 -0.056430332
-0.08689587 0.041160274 -0.025041305 0.10935536 -0.06914535 0.03609859 0.06984997 0.09057096
0.04049165 0.074525736 0.092796415 0.019832185 -0.016105218 -0.04891374 -0.041011706 0.08821573
-0.081601776 0.06350357 0.105100326 -0.008313031 -0.089186534 0.019193482 -0.05027405 -0.046499822
-0.058828138 -0.107768305 0.051439155 0.012844786 0.010406008 0.05136011 0.040688433 0.117413685
-0.06315955 -0.0037650412 0.058342747 -0.04654353 -0.021189246 -0.038788684 -0.047794666 0.057451967
0.08377861 -0.10548899 0.060774542 0.037355844 -0.06657826 -0.07213755 0.09708963 -0.0016463363
0.067027904 0.02569549 0.036239073 -0.034526642 0.075986356 0.10682848 0.0034981535 0.04009913
0.008193424 0.0054569216 -0.080177225 0.061947804 0.0025607112 -0.03600706 0.09921568 -0.01777173
0.025320577 0.0308891 0.0021651688 0.06027807 -0.030827792 -0.091132045 -0.0962859 -0.01663233

bias f4 [64]
00000000: b6cd a73d 1d4f a03d a41f d5bd f15c 90bd
00000010: 35aa 7dbd 5863 8e3c 9709 db3d 266e c33b
00000020: f2e2 923c ed04 6cbd 0c48 633c 2ba5 943d
00000030: 80f5 47bd f5aa 8e3d 7fc6 47bd 7cc4 e6bc
00000040: a003 4ebd dcdf 26bd 68d0 d63d d024 7cbc
00000050: 4968 bcbc 3a5d 9fbd 998a 84bd 5683 a93b
00000060: 3be2 c03d 4979 2a3d 81cb 383c b910 103c
00000070: 8468 3cbd a44e d93d df50 253d 2a7d 85bd
00000080: 03f4 0b3d 7f49 21bc 8b0b 3e3d ed0b ee3d
00000090: 8dca 79bd e3e8 0e3d 234e 6f3d dc4e f43c
000000a0: e2e6 943d 9865 29bc 9e13 9fbd 79f0 803d
000000b0: dcfa be3d 4b14 313c 6a7d f63b 1bc2 ef3d
000000c0: 78ac 923d 8530 b23d 73b0 7d3d bbc9 fabc
000000d0: 71f7 cfbd a665 573d af11 afbd 23ba d9bd
000000e0: 2c45 3fbd c26c 8b3c f32f f73d 324e ce3d
000000f0: 22fd 8c3d 8ac6 8e3c 51c3 a33d 02d9 a2bd
0.08193533 0.0782759 -0.104064256 -0.07048977 -0.0619299 0.017381355 0.106951885 0.0059640585
0.017930482 -0.057621885 0.013872158 0.07258066 -0.04881811 0.06966201 -0.048773285 -0.028169863
-0.050296426 -0.040740833 0.10488969 -0.015389636 -0.022998946 -0.077814534 -0.06471748 0.005173127
0.0941815 0.041619573 0.011278988 0.0087930495 -0.04599811 0.10610703 0.040360328 -0.06518014
0.034168255 -0.009844183 0.046397727 0.116233684 -0.060984183 0.034890067 0.058424126 0.02982276
0.072706 -0.010339163 -0.077674136 0.062958665 0.093251914 0.010808061 0.0075222747 0.117069446
0.07161802 0.087006606 0.061935853 -0.03061377 -0.101546176 0.052587174 -0.08548295 -0.10631206
-0.046696827 0.017019633 0.120696925 0.10073508 0.06884219 0.017428655 0.07996238 -0.07951547

weight f4 [64, 64, 1, 3]
00000000: c4d1 663d 2fea 633d 80a9 12bd 250e 3abc
00000010: b8e8 d6bb 39c7 4dbd 6af7 643d 2948 f7bc
00000020: 0cd8 58bc f536 8cbd 56fb 92bd 0b00 80bb
00000030: 7e1a 24bd c78d 46bd 3a49 223d a6c6 d0bc
00000040: 513b e7bc aa9f 58bd 43a5 76bd ef66 bfbb
00000050: 012d 403d ee6b 17bd 7aab 913d 9389 8abd
00000060: ee8f 96b9 4f75 fabc ec67 0b3c 92bb 44bc
00000070: da63 34bd 29d2 dc3c 1973 013d f8b2 663c
00000080: 8cfa 383d d64d 15bd 5ca9 33bc 8880 81bd
00000090: f29f 083d 3629 84bd 4c06 1bbd cac9 8e3c
000000a0: 2301 28bd 6cef be3c f400 89bd e8c8 e4bc
000000b0: 75ab 3cbd 0e48 733d f40b afbc 79b6 99bc
000000c0: f610 7c3d e8fe b73c 2548 bf3c 2f2e 4c3d
000000d0: 2931 88bd d744 07bd ef8f 773b 8b18 123d
000000e0: bfd6 f0bc 5440 e43c e5ae 8f3d 57eb 573d
000000f0: 5b98 b53b 69ab 7b3d 7898 82bd 992e e8ba
00000100: c992 a53c 593d 64bd bb46 8ebd 8297 883a
00000110: d94a 26bd 987d e7bc b2f9 48bd ce02 aebc
00000120: d540 09bd 5b18 fdba c6ac 84bd e800 04bd
00000130: 8a70 4b3d 8de2 90bd 5840 c1bc 698f 67bd
00000140: 4a4e 82bc 84f7 2e3c a488 bbbc 9d15 2cbd
00000150: 9b34 40bc 10e7 54bd 46f0 90bd a96a 85bd
00000160: 2245 a6bc 65f0 84bc cd3d afbc 16bc 803d
00000170: b253 373c 093f acba 234f 8d3d 5300 893d
00000180: 4b5e d8bc 561e 41bd 30c6 893d 43cd f7bb
00000190: 9e31 5a3d ad7b 45bd 7954 fab8 c7d6 bcbc
000001a0: b41c 9f3c 8745 7bbd 6c3d 8936 400c 8f3d
000001b0: 21c4 043d 30b5 91bc 30e9 edbc cb5e 883b
000001c0: 02db 8abd 86c9 423d c30b 96bd a80c c9bc
000001d0: 03a7 2c3d c4ea 6cbd 51b7 79bd 4dd4 743d
000001e0: 3494 78bd d24d 68bd dbe8 79bd 84dc 41bc
000001f0: 9313 493d c2b3 8fbd 0ac1 8f3d ef7b 023d
00000200: 5db0 7ebd eb93 80bd 4eac 873d 4258 1cbd
00000210: d07a 8cbb 3a62 8fbd b9fb dd3c 19af 65bc
00000220: 5796 5e3d fb78 ef3c 4f8e 7b3d b3a6 87bc
00000230: f5e6 09ba 7892 cabc cffe 6bbd e534 1e3d
00000240: 096b afbc ca7c 3d3c 620b a93c 2668 37bd
00000250: 5eea 353c 30ab 1b3d 62d3 38bc cb20 fa3b
00000260: 68a0 5c3d 9eb1 86bc 9c64 7abd 28b9 ed3c
00000270: 9cb6 50bd 22f1 fd3c e091 033d d96a 79bb
00000280: a8b1 3a3d 8e1c 91bd 68de 40bd e0ea 85bd
00000290: ac3a 8d3d f9dc 443d cddd 003d e848 c1bc
000002a0: 0196 8f3d f4b2 753d 56a7 f23c 96dc d2bc
000002b0: 6d1b a4bc ac1e 2a3d eaef 65bd 4f1f a7ba
000002c0: b895 763c 4a41 8bbd 86f3 49bc 9dfc 79bd
000002d0: b6be 323d 1c6d 793d cf92 6bbd 4cb3 823d
000002e0: 59c4 c2bb 033b f7bc 2ac6 0f3d d651 663d
000002f0: a10f e6bb 8336 58bc 12c2 f8bc f915 893d
00000300: 555b 983c fab0 30bc 2f6e a1bc cfb1 07bd
00000310: c138 68bd 4539 2cbd 046a c03c f590 843d
00000320: fc21 88bc 9249 acbb b224 8c3c 1aee 60bd
00000330: 3181 123b 343a 423d bbdc 483d 6311 05bd
00000340: 2315 3b3d 64fe 433d 602c a23d f2ea 9a3d
00000350: f4ea 0b3d e109 893d a8dd 01bd 41ed 1c3d
00000360: 6303 71bd cd70 8dbc 56fc 623c 7a9b 133d
00000370: 46a5 4fbd bb66 ba3a d3ab eabc 544d 863d
00000380: e3a3 88bd a5ee 8fbc 72d8 733c a62f 9ebd
00000390: 9951 80bb 7bd8 14bc c063 6d3d a2c9 8d3b
000003a0: 02e5 c43b eba6 a2bc 19ed 7dbc 8690 dfbc
000003b0: e23b 03bc 4d19 383d 01f4 0cbd cad2 8e3d
000003c0: b302 2abd 6fdc cc3b 331b 9e3c 547f 5e3d
000003d0: fe74 cf3a bd4d 6dbd 952c 81bd 13a4 b8bd
000003e0: 163a a1bc 692e 7c3d b1ec 20bd 712f 463d
000003f0: f27d 90bd d0d4 99bc 74a1 673d 5910 803d
0.05635239 0.055643257 -0.03580618 -0.011355911 -0.006558504 -0.05023882 0.055900015 -0.030185776
-0.013235103 -0.0684642 -0.07176845 -0.003906255 -0.040064327 -0.048475053 0.039620616 -0.025485348
-0.028226526 -0.052886643 -0.0602162 -0.005841128 0.04691792 -0.036968164 0.07112785 -0.067645214
-0.00028717465 -0.030573515 0.008508664 -0.012007611 -0.04404054 0.02695568 0.031603906 0.014080755
0.045160815 -0.036451183 -0.010965671 -0.063233435 0.03335566 -0.06453173 -0.037847802 0.017430205
-0.04101671 0.023307525 -0.06689635 -0.02792783 -0.04606195 0.05939489 -0.021368004 -0.018763768
0.061539613 0.022460416 0.02334983 0.04984873 -0.066500016 -0.033024635 0.0037775 0.035667937
-0.029399274 0.027862705 0.0701578 0.052714672 0.005541844 0.061442766 -0.06376737 -0.0017714082
0.020211594 -0.05572257 -0.069470845 0.0010421129 -0.040598724 -0.02825813 -0.049066253 -0.021241572
-0.033509094 -0.0019309627 -0.064782664 -0.032227427 0.049667872 -0.07074461 -0.023590252 -0.05653325
-0.015906472 0.0106791295 -0.022892304 -0.0420128 -0.011731292 -0.05197817 -0.070770785 -0.065144844
-0.020296637 -0.01622791 -0.021391774 0.062858745 0.011189388 -0.0013141345 0.0689986 0.06689515
-0.02641215 -0.04714807 0.067272544 -0.007562311 0.053269975 -0.04821365 -0.00011936663 -0.023051633
0.019422866 -0.061345603 4.0900686e-06 0.069847584 0.032413606 -0.017786592 -0.029041857 0.004161691
-0.06780054 0.04755547 -0.07326462 -0.024542168 0.042151462 -0.057841077 -0.06096584 0.05977278
-0.060688213 -0.05671484 -0.061013084 -0.01183236 0.049090933 -0.07016708 0.07019241 0.031856474
-0.062179912 -0.06278213 0.066246614 -0.038170107 -0.0042871013 -0.07001157 0.02709757 -0.014018797
0.054342594 0.029232493 0.061415013 -0.01655898 -0.00052605505 -0.024728045 -0.05761605 0.038624663
-0.021413343 0.011565397 0.02063531 -0.044777058 0.011103241 0.038005054 -0.011280866 0.0076333038
0.053863913 -0.016442116 -0.061131105 0.029018953 -0.0509554 0.03099877 0.03212154 -0.003805807
0.045579582 -0.070855245 -0.047087103 -0.065389395 0.068959564 0.0480623 0.031461526 -0.023594335
0.07011033 0.059985116 0.029620808 -0.02573995 -0.020032609 0.041533157 -0.056137003 -0.001275042
0.015050344 -0.06799562 -0.012326127 -0.061031926 0.043638907 0.06089507 -0.057513054 0.063818544
-0.0059438166 -0.030179506 0.035101093 0.05623039 -0.007020906 -0.01319659 -0.030365977 0.06693644
0.018598238 -0.010784382 -0.01970586 -0.033128556 -0.05669475 -0.042046804 0.023488052 0.06472961
-0.016617768 -0.0052577937 0.017107341 -0.05491457 0.0022354836 0.047418788 0.04903863 -0.032487284
0.045674454 0.047850028 0.0791862 0.075643435 0.034159616 0.066913374 -0.03170553 0.0383122
-0.05884112 -0.017265702 0.013854107 0.036036946 -0.050694726 0.001422129 -0.028646385 0.06557718
-0.06671884 -0.01756985 0.014883148 -0.07723932 -0.003915977 -0.009084816 0.057956457 0.004327015
0.006008745 -0.019854983 -0.015498423 -0.027290594 -0.008009883 0.044946004 -0.034412388 0.069737986
-0.04150648 0.0062518637 0.019300079 0.05432065 0.0015827713 -0.057935465 -0.063073315 -0.0901567
-0.019681018 0.061567698 -0.039288227 0.048385087 -0.07055272 -0.018778235 0.056550458 0.06253118

bias f4 [64]
00000000: 021b 20bd 7bf6 a3bd 91c3 3d3c 2c57 853d
00000010: 2c64 6a3d 2e47 e7bc bae1 0cbd 7f86 43bd
00000020: 0825 62bb 13bf 343d 872a 70bd 7a59 f1bc
00000030: aa21 28bd 2dac 5f3d b59c 1fbd 2854 b03c
00000040: 29ab 91bb da5d d0bc 66ab 1e3c 2d0f 803d
00000050: 14de 53bd 97b6 34bd e848 25bd 587b 04bd
00000060: 6e64 ba3d eb8e 08bd 9fed 893d 7e48 e53c
00000070: 5ab9 04bd fbe7 723d 7b0d 523d 8cbf 5abd
00000080: cec0 603d 55be 093d 84e8 82bd 9f4c 4fbd
00000090: bb3b a43d 44f4 7d3d 14e3 61bd 7d96 c03d
000000a0: e093 593d 02db c13c 9530 923d b8bf b73d
000000b0: 1080 0f3c c1b8 cb3d 6167 b5bc 2120 833a
000000c0: b71a 8abb 891a 15bd 3f05 b63b f243 80bd
000000d0: 5928 1ebd 81c5 f6bc d4cf f8bc 767c 66bc
000000e0: a872 bdbc facb 693d 3a19 39bd faae 873d
000000f0: 039f b53d de42 c73c 26cd 2a3c 37c4 4e3d
-0.039088257 -0.08005997 0.011582271 0.06510767 0.057224438 -0.028232183 -0.034394957 -0.047735687
-0.0034506936 0.044127535 -0.058634307 -0.029461611 -0.04104773 0.05460756 -0.038967807 0.021524504
-0.0044454527 -0.025435377 0.009684419 0.062528946 -0.051725462 -0.044119444 -0.040352732 -0.032344192
0.09101187 -0.033339422 0.06734776 0.027988669 -0.032403328 0.059303265 0.051282387 -0.05340533
0.054871373 0.03362878 -0.06392005 -0.05061018 0.08019205 0.062000528 -0.0551482 0.09403703
0.05311954 0.023664001 0.071381725 0.08972114 0.00875856 0.099473484 -0.022144021 0.0010004082
-0.0042146104 -0.03640226 0.0055548246 -0.062629595 -0.038612697 -0.030123474 -0.030372538 -0.01406776
-0.023125961 0.057079293 -0.045190074 0.06625171 0.0886822 0.024323877 0.010424888 0.050480094

weight f4 [64, 64, 1, 3]
00000000: dec4 563d 8f4d f5bc d9e4 593d a4ec 9bbc
00000010: b5db 6b3d 9880 683c 5646 76bd 86b3 2fbb
00000020: 6541 763d aa94 b6bc f664 923d 1fb8 38bd
00000030: 1cdb 823d 8185 053d ee24 3fbd 0604 8ebd
00000040: 0b56 063c a6f6 07bd 50c2 80bd 17f8 dc3c
00000050: ccdd 3abd 9606 723d 3af3 7c3d bb63 b73b
00000060: 0ece 24bd 217f 10bd 0e44 823b f504 97bd
00000070: 401b c43c 5a6d fbbc 5bc0 2cbd 1059 763c
00000080: 65c9 c23c f9e3 36bd 4c16 d83c 6867 debc
00000090: e1e2 80bd 58bf 94bd 9200 fc3b 5b6f 9fbc
000000a0: 3d31 15bd 3393 60bd e3b0 b63c 87f2 053d
000000b0: 7f6d 6b3d 75ab be3b 1947 81bd 302b 8a3d
000000c0: 5615 773d fe4a 0abd df18 903c 2382 13bd
000000d0: cd57 103b e454 41bd b974 37bd ff88 56bd
000000e0: c3c2 f43c 8487 7abc 2040 3c3b 7bc6 ab3d
000000f0: 14ed 3b3d 6924 8c3c ed27 44bd 81d5 683d
00000100: f218 5b3d bd00 993d 5554 343c 24e7 abbc
00000110: 2468 883d fccd a43d 1b04 35bd 2f78 ec3c
00000120: ce62 c53c b28c 3abc fcd9 54bd 88cb 833d
00000130: 30a8 a63d 8486 5bbd f447 80bd cb2f b63c
00000140: 8015 51bd 0fb8 403c f344 5ebd f40f 27bd
00000150: 2ee8 aabc 3df7 9dbc 9241 86bd 8c66 113c
00000160: 7d34 753d fa9d f83c 7120 46bd 96a6 833d
00000170: 0fac 90bc 99ab 4b3d b8c9 39bd 6ab8 763d
00000180: 8fc9 013d 37a0 e0bc e5fe e8bc d032 953d
00000190: f512 64bd 49f7 2cb9 a198 4d3d b944 e3bc
000001a0: faa3 08bd eb2e 2bbd 60c8 1abd 8432 da3c
000001b0: 0d0d 7c3d a2f7 3d3b 227c 123d 8654 c0bc
000001c0: 9da1 26bd b2c8 453c 49cf 0fbd cd20 c53c
000001d0: ca26 db3c c49b eeb9 c0b8 103d 3740 993d
000001e0: 1e0b 9abb 8517 853d cc50 58bc b118 9d3d
000001f0: cd7b 9f3d 7d42 3cbd dde3 423d a60e a53c
00000200: c027 acbc 4926 353d 391b cdba 28fa 43bc
00000210: 16a0 6d3d be35 773c 3181 5fbd 5628 49bd
00000220: 2a4e 50bd 7596 123d 10dd 0abd cecf ef3c
00000230: 5310 83bd 69cf 5b3d 1a77 81bd 9ee7 aa3c
00000240: bf51 15bb dc68 6c3d e1c4 6d3d 25e7 84bd
00000250: 2202 633d 4e93 52bd e150 7f3d 235f 633d
00000260: 33e9 47bd f54e 1b3d 145c 933b a61e 9ebc
00000270: 01e1 c6bc a4d7 e1bc f596 4fbd 61d0 3a3d
00000280: d2d5 423d eced d4bc 43a6 03bd 6d65 c3bc
00000290: 0020 1bbd 2cfe 623c 52cb 08bc 8ece 013d
000002a0: 27a4 a83b 120d 76bd c480 753d eb93 50bd
000002b0: 2351 953d 8d69 8eba acaa 22bc 3385 89bd
000002c0: e4aa debc 4210 6c3d 0de0 12bd c5ec 1dbd
000002d0: 4079 803d 13d7 97ba 309b b0bb 120f a7bc
000002e0: 45ab 003d d59e 1ebd 40c5 e73c 9bc6 9f3c
000002f0: c4a2 72bd 94fa b8bc c2ef 913d 7089 103b
00000300: 175b 5f3d 0e70 893d a2d7 be3a 2741 513d
00000310: c3e9 b13c cc9d 73bd f7af 58bd 9783 84bc
00000320: 4f91 bebc 6486 8c3d 3087 dfbc 9953 e43c
00000330: 2def 5e3d 6ed6 593d 1ec1 4eba 8106 b73c
00000340: 0657 9d3c df76 2ebd 81f9 22bc 2ca5 29bd
00000350: f116 4f3c 56ce 813c 733a 063d a0e9 36bd
00000360: 8f04 2d3d 7af2 6cbd a5bc 9cbd 60f7 333d
00000370: 6ca4 813d ab95 903d 90cf a4bd 854d e63c
00000380: 2d70 ecb9 5930 f53a 3ed4 b6bd 16ff dcba
00000390: a8e6 ffbc 5538 31bd e916 c2bd 445d e5bb
000003a0: 4551 503c 174a 53bd c4a0 51bd bad1 723d
000003b0: 1b8a 973a a0b9 833d be9a 233d 1c16 87bd
000003c0: b12b ffbc 34df 9d3d a521 283d 2b24 52bc
000003d0: 26e0 3cbd eeeb 20bd 76bb 0a3d c065 5ebd
000003e0: e543 823d 0209 813d c568 34bd e3e6 793c
000003f0: 0664 fc3b d607 55bd 6894 70bd 69d5 443d
0.05243384 -0.02994421 0.05319676 -0.019033737 0.057582576 0.014190815 -0.06012567 -0.0026809885
0.06012096 -0.022287685 0.07148163 -0.045097467 0.06389448 0.032598022 -0.04666608 -0.06934361
0.008199225 -0.033194207 -0.06287062 0.026973767 -0.04562168 0.059088312 0.061755396 0.0055966056
-0.04023557 -0.03527749 0.003975398 -0.07373992 0.023938775 -0.030691791 -0.042175632 0.015035883
0.023777673 -0.044651005 0.02637782 -0.027148917 -0.06293274 -0.072630584 0.0076904977 -0.019462278
-0.03642391 -0.05482788 0.022301143 0.032701995 0.05747747 0.005818779 -0.06312389 0.067465186
0.060323082 -0.033762924 0.017589984 -0.03601278 0.002202499 -0.0472001 -0.04478905 -0.052376743
0.029878026 -0.0152910985 0.0028724745 0.083874665 0.045880392 0.017107205 -0.04788964 0.05684424
0.053490587 0.07470844 0.011006434 -0.02098424 0.06660488 0.08047101 -0.04419337 0.028865902
0.024094965 -0.011386083 -0.0519657 0.06435305 0.08137548 -0.05359508 -0.06263724 0.022239586
-0.051045895 0.011762633 -0.054264974 -0.0407867 -0.020862665 -0.019282931 -0.06555475 0.008874547
0.05986451 0.030348767 -0.048370782 0.06428258 -0.017660169 0.049724195 -0.04535839 0.060234465
0.031686362 -0.027420146 -0.028441856 0.07285082 -0.05568214 -0.00016495319 0.050194386 -0.02774273
-0.033359505 -0.04179279 -0.03778875 0.026635416 0.061535884 0.0028986712 0.035762914 -0.023477804
-0.04068147 0.012071775 -0.035109792 0.024063492 0.026751895 -0.00045510952 0.03533244 0.07482951
-0.0047010323 0.064986266 -0.013202857 0.07670725 0.07787285 -0.045961846 0.04758059 0.020148586
-0.021015048 0.044225965 -0.0015648372 -0.011961497 0.058013998 0.015088497 -0.054566566 -0.049110733
-0.050855793 0.03578802 -0.033902228 0.029273894 -0.06399598 0.0536646 -0.06321545 0.020862397
-0.002278432 0.05771719 0.058049086 -0.064894 0.055421956 -0.051410012 0.06233299 0.05551065
-0.04880638 0.037917096 0.0044970606 -0.019301724 -0.024277212 -0.027568646 -0.050681073 0.04560888
0.047567196 -0.025992356 -0.03214098 -0.023852075 -0.037872314 0.013854545 -0.008349257 0.031691127
0.0051465216 -0.06007106 0.059937254 -0.050922316 0.07290866 -0.0010865197 -0.009928387 -0.06714859
-0.027181096 0.057632692 -0.035858203 -0.03855588 0.062731266 -0.0011584483 -0.0053895935 -0.020392928
0.031413335 -0.038725693 0.028292298 0.019503882 -0.059237257 -0.022580422 0.07125808 0.0022054575
0.05453023 0.06710826 0.0014560113 0.051087525 0.021717912 -0.05947666 -0.05290219 -0.016176028
-0.023262648 0.068615705 -0.027286142 0.027871894 0.054427315 0.05318301 -0.0007887053 0.022341968
0.019206535 -0.042593833 -0.009947182 -0.041417286 0.012639747 0.015845459 0.032770585 -0.044656396
0.042240676 -0.05784843 -0.076531686 0.043937087 0.06330189 0.07059797 -0.08047402 0.028113136
-0.00045097005 0.0018706425 -0.08927201 -0.001686069 -0.031237915 -0.043266613 -0.09477026 -0.0069996435
0.012714689 -0.05158433 -0.05117871 0.059282042 0.0011561544 0.064318895 0.039942496 -0.06596014
-0.031148763 0.07708588 0.04104771 -0.012826006 -0.046112202 -0.0392875 0.033870183 -0.054296255
0.06360606 0.06300546 -0.04404523 0.015252802 0.0077023534 -0.052009426 -0.05873528 0.048055086

bias f4 [64]
00000000: d0dc 38bc 294c 963d 27fe 5b3d 6b10 8ebd
00000010: 765c bebc d8bb 983d 25cb 14bd 2101 75bd
00000020: 968e d3bc 1f7d 063c d103 d6b9 4f49 4b3d
00000030: 4ca4 133d aa98 c63d 5d0e 5dbd bd62 3f3c
00000040: b81d ab3d 6947 333d 0c78 303d 8cba a8bc
00000050: f206 3c3c 9865 84bd 1569 f7bc f814 e8bc
00000060: e9d8 27bd c827 613d e8e8 14bd a400 293c
00000070: b497 8d3d 43af 15bd 4a03 b53c f210 0f3d
00000080: 543e 90bc 0990 a83d a707 6a3d d2e9 81bd
00000090: bc95 5fbc 1a41 5abd c5be 893d f0e4 95bc
000000a0: a404 893c 8f76 a83d 2d8c e0bc 44b5 323d
000000b0: daf9 b13d 8866 c63b aebc 363d 2be9 c73d
000000c0: 6465 293d 05e2 febb 6cf2 f5bc baaa babc
000000d0: 9445 4c3a 5004 b43d 3717 76bd 6a7b 53bd
000000e0: 1330 b7bb 694f 1ebd 431f 6c3d 7770 743c
000000f0: a559 1cbd 3db3 643d d47d 793d 3375 03bd
-0.011283115 0.07338745 0.053709175 -0.06936725 -0.023237448 0.07457703 -0.036326546 -0.05981553
-0.025824826 0.008208542 -0.00040820104 0.04963046 0.036045358 0.09697087 -0.053968776 0.011681256
0.08355278 0.043769274 0.043083236 -0.020596765 0.011476265 -0.0646469 -0.030201474 -0.028330311
-0.040978346 0.05496958 -0.03635493 0.010315094 0.06913701 -0.036544096 0.022096295 0.03492827
-0.017607845 0.082305975 0.057136204 -0.06343426 -0.013646539 -0.053284742 0.067258395 -0.018297642
0.016725846 0.08225738 -0.027410591 0.0436299 0.086902335 0.006054703 0.044613533 0.0976127
0.04135646 -0.0077784085 -0.030022822 -0.022786487 0.00077923504 0.08789885 -0.060080733 -0.05163137
-0.0055904477 -0.03864995 0.057647 0.014919392 -0.03817143 0.055834997 0.060911015 -0.03209419

weight f4 [64, 64, 1, 3]
00000000: c132 923c c829 b1bc 008b 533d 098c 913d
00000010: 906a c33c 820c 943d bfdc 113d 9267 2a3d
00000020: e92f f53c 5992 4abd 7058 923c 9aff ff3b
00000030: 0438 333d e6fc 47bd 1d6c 923d f838 d83c
00000040: 52ba e6bc 0cbf 6c3b 9171 fcbc 63ec 4fbd
00000050: 2be8 073d 022d b13c 21f2 d73c 3f8d 4abc
00000060: 18d2 87bd 7bfc 463c b2d6 f43c ef13 f6bc
00000070: d2de 6abd dc8e 00bd 9b15 14bc d3b9 073d
00000080: ee0c a0bc e061 12bd 450a a3bc 67a7 7d3d
00000090: 2077 90bc ca90 d2bc 72d3 703d 6f65 94bd
000000a0: b806 7fbd 30c7 5fbd abd6 c23c 2866 bb3c
000000b0: cf09 263d 4f2f 643c 0cdc 7a3d 8f06 90bc
000000c0: bc05 e4bc 9a3d 8fbd 4b78 7d3d d982 ef3c
000000d0: 3c02 5a3d e906 17bd ef72 c6bc f014 61bd
000000e0: a22b 553d 868f 263b c7a3 babc a617 253c
000000f0: 3e39 623d d566 35bc 4872 53bd 2001 4dbc
00000100: 138d 213a 3609 123d 8f67 b93c 576a 1fbd
00000110: 4376 883c 9bfd 67bc 560a 313c a5da 5e3d
00000120: 8501 eabc ba6b a13c ba94 81ba 9733 18bd
00000130: 0181 18bc e972 fd3c 97f2 2f3d b833 b23d
00000140: bf9b 093d 721f a53c f0fd 77bd 9064 d6bc
00000150: dac4 ac3d f8d4 a53d 5973 9fbb 53b3 553d
00000160: 8681 8e3c d1bb 1d3d f0f3 69bd 0db0 8ebc
00000170: 901f d63c 335d c73d 3873 ab3d 83f5 e4bb
00000180: d538 88bd a7aa cf3c f733 5cbc 077d 8a3d
00000190: af3d 44bd be26 01bd 5e7d 7abd 64fe 87bd
000001a0: f9fe 123d 5c9a 063d 060b 773a 244d 973d
000001b0: 8891 12bd 5a9f 303d 5dda a4ba 74d9 403d
000001c0: a0ab afbc 3975 1ebc 3e75 b2bc 7f75 74bd
000001d0: 104f e63c 9f7d a23d 01ae 57bd 9594 d93c
000001e0: 9456 283d ef1a c3bc de49 733d e438 923d
000001f0: 66a1 e83b 935c 3d3d 05b4 853d 28a9 c03c
00000200: 0204 7abc fb3c 78bd 6196 7d3d 815b 68bd
00000210: bac4 03bd 40bd e639 5fae 1ebd a725 c63c
00000220: b855 4bbd 41cf 533d 5382 9bbc 77c1 39ba
00000230: 7db8 c2bc b3dc d2bb 588a 203d f46a 973d
00000240: 10bf 143d 2a08 9e3d 9b1b 07bd e20f e33c
00000250: bb4b 4dbd 4ff5 5b3d ff7c 0b3d e938 943c
00000260: e246 f9ba 2fd8 093d b4b0 d13c 80af 543d
00000270: d7b8 7e3c 886a 30bc a1d9 a33d 44d4 5fbd
00000280: 3427 82bd ba3f 47bd b76a a33c dbf9 0ebd
00000290: 0e91 063c 2909 42bc b243 023d da32 3ebd
000002a0: f93c 063c 3047 763c e421 d23b 26f8 5f3d
000002b0: 42cd b4bc de83 7ebc cbdc 8e3d 67b5 0aba
000002c0: 92a6 953a 95ad 783d e826 86bc 2eb4 a83c
000002d0: 16df 8d3b b309 193b 8a95 073d 4ad0 72bd
000002e0: a03d b13c b44f 4bbc 6ea8 273c abde 8abc
000002f0: c384 85bc d3d4 893c 0974 c539 9129 74bd
00000300: cb06 743c 6e9d 413d 27f7 fe3c 385e 6f3c
00000310: c338 943d 68c5 a8bb b7dc 923d 03a5 c43c
00000320: efcc 0cbc b267 b1bc 86bd 8c3b 7e0d 613c
00000330: be33 38bc e0ea 94bd a51e 28bb 247d 62bd
00000340: dca4 7e3d e8fe 27bd 7ed3 5c3d c1c8 fbbc
00000350: b0a8 6a3c de0b 923d 2b33 413d c225 7b3d
00000360: 0463 5b3d 263e 1dbd 8767 d63c f60a 433d
00000370: 5c0d 29bd a4ce 413d 6b61 42bd d375 f6bc
00000380: ad3b 353d 2443 153d 4cf8 f3bb 00ab 1bbd
00000390: d3eb 22bc 0467 813d f621 80bd f22d 82bd
000003a0: 76c4 a6bd af75 9dbc dc78 aabd 058f be3a
000003b0: cc14 ddbc 5e0e 6c3d 72e9 9ebc eac4 2ebc
000003c0: 8844 a3bd 2c78 9d3c 61b4 53bd f700 153d
000003d0: c036 9c3d 65ff 1e3b dbda 06bd d951 cebc
000003e0: 9cfb 1c3d c2f4 9bbd 433c d73c dd46 1ebd
000003f0: 6fe8 ecbc e594 2abd a9e8 50bc 827f 8c3c
0.017846467 -0.021626368 0.051646233 0.07106788 0.023854524 0.07228948 0.03561091 0.04160268
0.029930072 -0.049455974 0.017864436 0.0078124525 0.043754593 -0.048825167 0.07149527 0.026394352
-0.028165016 0.0036124615 -0.030815871 -0.050762545 0.033180397 0.021627907 0.026360573 -0.012362777
-0.06631869 0.012145157 0.029887531 -0.030038802 -0.057341404 -0.03138624 -0.009038354 0.0331362
-0.019537415 -0.035737872 -0.019902358 0.061927225 -0.017634928 -0.025703806 0.0587954 -0.072459094
-0.062262267 -0.05463332 0.023784002 0.02287586 0.040536698 0.013927295 0.06124501 -0.017581252
-0.027834766 -0.069941714 0.0618823 0.029237198 0.053224787 -0.036871824 -0.024224726 -0.05495161
0.052043565 0.0025415136 -0.022783173 0.010076439 0.05523037 -0.01107188 -0.05162266 -0.012512475
0.00061626843 0.035653315 0.022632388 -0.038919773 0.016657954 -0.014159585 0.010805687 0.054407734
-0.028565178 0.019704688 -0.0009886243 -0.037158575 -0.009308101 0.030938582 0.04295596 0.08701271
0.033595797 0.020156596 -0.060544908 -0.026170999 0.08435984 0.08097261 -0.0048660454 0.05217297
0.017395746 0.038509194 -0.057117403 -0.017417932 0.026138097 0.09734573 0.083715856 -0.006987275
-0.06651465 0.025349928 -0.013440124 0.06762128 -0.04791039 -0.031531088 -0.061154716 -0.06640318
0.035887692 0.032862052 0.0009423945 0.0738776 -0.03578332 0.04312072 -0.0012577284 0.04708238
-0.021444142 -0.009671503 -0.021784421 -0.059682366 0.028113872 0.079341166 -0.052656177 0.026560107
0.041098192 -0.023816554 0.059396617 0.07139757 0.0070993183 0.046230864 0.065284766 0.02351816
-0.015259745 -0.06060503 0.06191099 -0.05672789 -0.032170035 0.0004401002 -0.038740512 0.024187876
-0.049642295 0.051711325 -0.018983042 -0.00070860184 -0.023769611 -0.006435001 0.039194435 0.073934466
0.036315024 0.07716401 -0.03298531 0.027717534 -0.05012105 0.05370074 0.034054752 0.018093543
-0.0019018317 0.033653434 0.025596954 0.051925182 0.015546999 -0.0107675865 0.08000494 -0.05464579
-0.06355134 -0.04864476 0.019948347 -0.03490625 0.008213295 -0.011843004 0.03180284 -0.046435215
0.008193248 0.015031621 0.0064127315 0.054680012 -0.02207053 -0.015534369 0.06975707 -0.0005291313
0.001141744 0.060712416 -0.016375974 0.020593729 0.0043295724 0.0023351728 0.033101596 -0.05928067
0.02163583 -0.012409139 0.010233028 -0.01695188 -0.016298657 0.016825115 0.0003766122 -0.059609953
0.014894198 0.047269277 0.03112371 0.014609866 0.07237389 -0.005150486 0.07171004 0.024004465
-0.008593782 -0.021655891 0.004295054 0.013736127 -0.011242805 -0.07271361 -0.0025653031 -0.055295125
0.06216894 -0.041014582 0.053912632 -0.030735375 0.014322445 0.0713117 0.04716794 0.061315306
0.053561226 -0.038389347 0.026172413 0.047617875 -0.041272506 0.04731621 -0.047456186 -0.03008548
0.044246364 0.036440983 -0.007445371 -0.038004875 -0.00994392 0.06318477 -0.062564775 -0.063564196
-0.08142941 -0.019221155 -0.08323833 0.0014538473 -0.026987456 0.05763089 -0.019398425 -0.010667065
-0.07972056 0.019222341 -0.051685695 0.036377873 0.0762763 0.0024261114 -0.03292356 -0.025185512
0.03832589 -0.07615043 0.026273852 -0.0386418 -0.028919427 -0.041645903 -0.012750783 0.017150644

bias f4 [64]
00000000: 9197 84bd 9b5d 1dbc b12e 193d 37c8 81bd
00000010: c17d 07bd 07bd 7ebd 44e1 5d3d 4387 26bd
00000020: 04d6 343c f7b5 e93c 7675 16bc c2f5 3abd
00000030: 1836 c5bc 4b0e 813d cb17 803d 98b7 833d
00000040: d625 3a3c 2727 753c 03c0 e0bc 6685 9ebb
00000050: c015 5f3d b8cd 433d 0da5 fc3c 6e49 1a3d
00000060: 0142 253d 4cbb a23d 37ec ffbc f802 8b3d
00000070: cad9 9abc 8451 8fbc 4a23 903c 067b d1bb
00000080: c9e6 623c 9e9d e1bc ffe0 5a3a 9fd9 083b
00000090: a877 b03c 4bbd 7d3d 591a 703d ffc9 c6bc
000000a0: 9db3 193d 133a 053c 8166 de3c f089 25bd
000000b0: 4f84 f83c 829c 87bd dd91 79bd dd1c 95bc
000000c0: a1db 783d 2eaa 57bd cd0d c03c e429 c0bc
000000d0: 6d6a f43c aeef 4abd f661 3c3d d6b6 263b
000000e0: eb9e 0cbd 0dd6 c3bb f6a0 07bd d04c 953d
000000f0: b3cc 473d a422 06bd e793 92bd 2978 5bbd
-0.064742215 -0.009604837 0.037398044 -0.06337016 -0.033078913 -0.06219199 0.05416991 -0.04065634
0.011037353 0.02852915 -0.009183278 -0.04564453 -0.024073645 0.06301554 0.06254538 0.06431502
0.01136156 0.014962948 -0.027435308 -0.0048376797 0.0544641 0.04780361 0.030840421 0.037667684
0.04034615 0.0794588 -0.031240566 0.067876756 -0.018902678 -0.017494924 0.017594952 -0.0063928394
0.013848969 -0.027540978 0.0008349567 0.0020881665 0.021541432 0.061948102 0.058618877 -0.024266241
0.03752481 0.008131522 0.027148487 -0.04041475 0.030336527 -0.06621648 -0.06093012 -0.01820224
0.06075633 -0.05265253 0.02344408 -0.023457475 0.029835904 -0.049544983 0.04599186 0.0025438569
-0.034331243 -0.0059764446 -0.03311249 0.072900414 0.0487792 -0.03274788 -0.071571164 -0.05358139
